Problem_4/models/relu_model.pth (torch, 439191 bytes, 6 tensors)

0.weight f4 [128, 784]
00000000: b020 953c 7211 3cbc 687a d4bc 1e1b 8a3c
00000010: db62 07bd 6061 6b3c 7182 083d 58a5 c03b
00000020: 0ae6 cfbc fc37 7b3c 1606 fe3c 54ca 77bc
00000030: d848 a3bc cbcb d7bc 66ea c23d 45de 603d
00000040: a8c4 ab3c 3648 f63c 50eb d13b e087 da3c
00000050: d013 593c 54e5 b7bb f250 a73c bc22 8d3c
00000060: 04e6 5d3c 8cd9 ae3c 46f8 fb3c f4e6 003c
00000070: f835 9c3b 1a72 91bc e497 02bd d487 fabb
00000080: 7c54 973b 9ffd adbc fe15 d0bc 9440 8abd
00000090: 2048 c4bc 2957 b3bc c58b a8bd cba6 84bd
000000a0: 4a47 f8bd 939b e3bd 6024 8a3d 964e b5bd
000000b0: cecd 69bc 0a29 f5bd 5902 d8bd bab1 00be
000000c0: 4888 e4bd defb 68bd 4910 5dbd 23c5 01bd
000000d0: 7c12 a1bc f589 90bc 1c70 ca3c 4ecc ba3c
000000e0: e4ae a0bb 2b10 11bd 77d7 45bd cd5c 83bd
000000f0: 8590 e0bd 8b82 513d 998d 64bd d446 6bbd
00000100: 2b1c 0fbb a221 d53d 7263 c13c 28bb 473d
00000110: f148 2fbd ba83 b8bc e94d 59bb bbb7 873a
00000120: 8a1a 513d 18c1 6b3d 8cd4 08bd 516b a53c
00000130: 6737 92bc ff38 89bc 21b6 b3bc 2519 00ba
00000140: 0ef7 0d3e 56bb cb3c c9d5 0e3d 0a15 bf3c
00000150: dc15 c8bc f0da 50bb ce36 073e e88a c9bc
00000160: 3194 61bd dca0 c03d d175 16bd 669b 07be
00000170: 60ce d1bd 293e 73bc df7e cf3c bbea 04bd
00000180: 71b6 9bbd d0a5 cabd caa9 abbd 858a 0dbe
00000190: 2f04 6ebd 1e8d ccbd f5e5 99bd fa37 3bbc
000001a0: 32d1 903d 64fe fa3c 986e 00bd 7913 64bd
000001b0: d30d 883d f3f0 cabc b676 14bd 6a17 8a3c
000001c0: c0ff bf3c 2dc3 c3bb 1de2 f53d ef98 ecbc
000001d0: 8e1d 8a3c 576c 1e3d 5c11 0a3d a10c 14bc
000001e0: 4acd 9a3c 1d7c 163d 2fe1 933c 6900 133a
000001f0: 84a4 973d 4ed2 523d 8b96 bdbd 7eee 9bbd
00000200: 9124 b9bd 93d5 8dbd 1210 bbbd b5c8 c7bd
00000210: ac72 43bd 3065 d3bd b7a9 54bd 202b ad3c
00000220: 2a7e 183d 1cd7 efbc b533 05be 353a 49bd
00000230: 9cdd 463c 6812 7f3c 8c03 423d bdde ddbc
00000240: 711e e03d 50f2 123e 2c63 353d 5f17 563d
00000250: a45c c33d c97d c73c 84a8 49ba 1779 ebbc
00000260: ec00 d4bd e1b1 cdbd 276f 97bd 1402 06bc
00000270: b469 c8bc 2b93 5ebd c8a0 4bbd c66e 06be
00000280: d3a2 02be 9891 07be 3b35 93bd 79d8 eb3c
00000290: 52a5 aa3d ff36 313c 6844 26be 704f 7cbd
000002a0: d09d 293c e60b 2ebd 24f7 7ebd e356 023d
000002b0: bf96 ea3d 6fdd a73c 26a7 f33c fe0b 423d
000002c0: 9640 31bd 6d8b 2dbd 300e 66bd 0a33 83bd
000002d0: 536a 7fbd 77b3 84bd 5f9e c2bd 4f4d 3bbd
000002e0: 41e2 b8bc 8510 b9bb 7364 203d c4da 96bd
000002f0: adcd b1bd bf5c 7ebd b047 98bd 621b 65bd
00000300: 9f3a dabc c90d 60bd 7709 ef3c c576 913c
00000310: 20e7 05bc 812d f9bd e865 62bc 4ead c03b
00000320: 36f7 85bd 591b 78bc b1b9 d43c 0b0d 58bc
00000330: f40e 8bbd fe6c bbbd 585b 84bd 6a97 43bd
00000340: 49db f4bc e2bd 6bbd 6ecc a3bb 990b 3abd
00000350: 18db aebd eb65 3a3c b8de 49bc eebd 883a
00000360: 8921 1f3c 2b7c 0e3d 0a3e 1cbb 561c 46bd
00000370: b3af 87bc 504d 833b 02e5 e13d a67f ac3c
00000380: 2e13 eabd afaa 34bd 7177 48bd d3f0 74bd
00000390: 73cf 88bd 0d3e b4bc 7983 dd3c 2ff7 8fbd
000003a0: 338b eabd 46c4 b2bd dd1c 8c3c 2892 02bd
000003b0: def9 23bd 2a08 753d c964 a23b f4f5 3dbd
000003c0: 5e3f 0ebe d43b 6dbd 4e1b febc d718 173b
000003d0: bcad 343d 78c0 4bbc 49f7 67bc ddaa b2bd
000003e0: 6a86 51bd 4a56 573d f317 443c 9743 70bd
000003f0: b9ff 03bd 22d4 b7ba 5d92 70bd 9ee1 34bd
0.018204063 -0.011478769 -0.025937274 0.016858634 -0.03305326 0.014366478 0.033327524 0.0058790855
-0.025378246 0.015333172 0.031008761 -0.015123922 -0.019932196 -0.026342293 0.09517364 0.054899473
0.020967796 0.03006373 0.0064062253 0.026676118 0.013249353 -0.005612055 0.02042434 0.017228477
0.0135436095 0.021343969 0.030758034 0.0078675635 0.0047671758 -0.017754603 -0.031883135 -0.0076455865
0.0046182256 -0.0212391 -0.025401112 -0.067505985 -0.023960173 -0.021892147 -0.08229784 -0.06477126
-0.12122972 -0.11113658 0.06745219 -0.0885288 -0.014270259 -0.11970718 -0.10547323 -0.12567797
-0.11158806 -0.056880824 -0.05397061 -0.031682145 -0.019662134 -0.017643908 0.024711661 0.022802498
-0.004903661 -0.03541581 -0.048301186 -0.06414185 -0.10965065 0.051149886 -0.0557991 -0.057440594
-0.0021836858 0.104068056 0.02360699 0.04876247 -0.04279417 -0.02252375 -0.003315801 0.0010354439
0.0510507 0.057557195 -0.033405825 0.020192774 -0.017848684 -0.01675081 -0.021937432 -0.00048865593
0.13863775 0.024869602 0.03487185 0.023325462 -0.024424486 -0.0031868778 0.132045 -0.024602368
-0.055072967 0.094056815 -0.036733452 -0.13242874 -0.10244441 -0.014846363 0.025329052 -0.03245042
-0.07603157 -0.098949075 -0.08381994 -0.13822372 -0.05810946 -0.099878535 -0.07514564 -0.01142692
0.07071151 0.030638881 -0.03135547 -0.055682633 0.06643262 -0.024773097 -0.036246024 0.016856868
0.02343738 -0.0059741945 0.12006018 -0.028881518 0.016859796 0.03867754 0.03370796 -0.009036214
0.018896718 0.036739457 0.018051712 0.0005607666 0.07404426 0.051470093 -0.092572294 -0.07613848
-0.090401776 -0.06925502 -0.091339245 -0.09755079 -0.04771678 -0.10322034 -0.051919665 0.021138728
0.037229694 -0.029277377 -0.13008006 -0.049127776 0.012137797 0.015568353 0.047366664 -0.027083749
0.10943306 0.14350247 0.04428403 0.052268382 0.09539154 0.024351971 -0.0007692652 -0.028744264
-0.10351738 -0.10043693 -0.073942475 -0.008179206 -0.024464466 -0.05433957 -0.04971388 -0.13128194
-0.12757425 -0.13239133 -0.07187887 0.028789746 0.083323136 0.010816335 -0.16237032 -0.061599195
0.010352567 -0.042491816 -0.06224741 0.031821143 0.11454534 0.02049133 0.029742789 0.047374718
-0.043274485 -0.042369295 -0.056165874 -0.06406219 -0.062357258 -0.06479543 -0.09502863 -0.045728024
-0.022568824 -0.0056477212 0.039158296 -0.07365945 -0.08681808 -0.06210017 -0.07435548 -0.055934317
-0.02663928 -0.054700647 0.029179318 0.017756829 -0.00817278 -0.12166882 -0.013818242 0.0058800345
-0.06541292 -0.015143239 0.02596745 -0.013186703 -0.067899615 -0.09151648 -0.06462735 -0.04775182
-0.02988972 -0.057554133 -0.004998735 -0.045421217 -0.085378826 0.011376838 -0.012321167 0.001043258
0.009712585 0.034786385 -0.002384069 -0.048366867 -0.016563272 0.004007019 0.11030008 0.021056961
-0.114294395 -0.04410809 -0.048942033 -0.05979998 -0.06680193 -0.022002244 0.02704023 -0.070295684
-0.114523314 -0.087288424 0.017103607 -0.031877667 -0.040033214 0.05982224 0.004955862 -0.046377137
-0.1389136 -0.057918385 -0.03101888 0.0023055577 0.044111 -0.012436025 -0.0141580785 -0.08723996
-0.051153578 0.052572526 0.011968601 -0.05865821 -0.032226298 -0.0014025012 -0.058733333 -0.044160478

0.bias f4 [128]
00000000: 7e7f 613d 3ad9 f73d f003 053e 261a c2bb
00000010: 8c89 03bd 7606 b03c ba89 be3d 7832 11bc
00000020: 26e2 9a3d 6839 15bd 523c 6ebb affe 233d
00000030: aa13 4dba 79b9 763d 3b77 883d 6915 1c3d
00000040: 7359 a9bc f170 b9bc ecc9 af3c 589e 4e3d
00000050: 3232 99bc 3391 1d3d be81 213d 268f b8bd
00000060: f6a7 9bbd 70b0 713d 97e5 793c bdbd 4cbd
00000070: cec7 783c 6efd 58bd ec6d 4a3b 8a4c 513d
00000080: 1693 0a3c 1c4f a73d ae71 7abc fb7c 433d
00000090: 8aad 99bc 345a 5a3d 4bf3 343d a670 fd3d
000000a0: 04be ac3c d1e5 983d dc1a cdba a70d 21bd
000000b0: ae8e cb3d bd8d 6e3d cf37 283d 814a 5b3d
000000c0: 2d82 f83d 1426 5f3b f29a 593d 89e5 c83c
000000d0: e424 b43c ff4a ef3d 4dad 1d3d 8034 18bd
000000e0: 6837 7dbd b0d4 7f3d 2055 4c3d 7de4 663d
000000f0: 5596 843d 6e21 8b3d b258 ce3b 7abb 833d
00000100: a0f0 263d aa6c 58bc 37d5 803d 1dd6 943d
00000110: 4120 3a3b 6606 793d bd5d 9d3c 07af bc3c
00000120: d204 fa3c 809b cebc daf6 bd3c 8c3c 0c3d
00000130: 82b2 d03d 73ab c93d d721 c23d 1e11 b33d
00000140: edf8 913c 0477 0b3e 5152 a1bd dddf 093e
00000150: 59c0 1d3c 14b4 633d d3c5 9e3d 4ff7 c8bc
00000160: d00a 2e3c 2bf2 34bd 4cc2 593d b978 49bd
00000170: 5259 95bb 6bd0 043d 3922 a73d ae77 f13b
00000180: a767 bb3b fdf9 3bbd 4480 51bd d0cb 703c
00000190: 500d 06bd dd12 56bc bd34 86bd 1787 0cbc
000001a0: dc96 213c 4f40 053d a022 debb 308e 273d
000001b0: 2788 533d 626f 8bbc 74d3 463d cab1 343d
000001c0: a57e a9bc 611d 973d 74dd d23d 557c 103e
000001d0: 9870 85bd 99d1 44bb 80d7 2cbd 0016 b33d
000001e0: a0bb b43c 6a61 0cbd 2038 d13b aab4 983d
000001f0: 62cb e5bb 64b0 d23c 7569 823d ad2e 513d
0.055053227 0.121019796 0.12989783 -0.0059235273 -0.032113597 0.021487456 0.09303613 -0.00886213
0.07562666 -0.0364317 -0.0036351872 0.040037807 -0.00078230596 0.060235474 0.066633664 0.038106356
-0.020672536 -0.022636862 0.021458589 0.050443977 -0.018700693 0.03846855 0.039430372 -0.090116784
-0.076003954 0.059006155 0.015252492 -0.049985636 0.015184356 -0.052976064 0.0030888272 0.051098384
0.00845792 0.08169386 -0.015285892 0.047726613 -0.018759508 0.05330868 0.044177335 0.123750016
0.0210867 0.07465709 -0.0015648264 -0.03931966 0.09939323 0.05824064 0.04106885 0.05353785
0.12134204 0.0034049796 0.053126283 0.024523513 0.021990247 0.11684226 0.03849535 -0.037159443
-0.061820418 0.062458694 0.04988587 0.056370247 0.06473986 0.067934856 0.0062971944 0.06432243
0.04075682 -0.013209501 0.062906675 0.07267401 0.0028400572 0.060797118 0.019209737 0.023032678
0.030519877 -0.025220633 0.023188997 0.03423743 0.10190298 0.098471545 0.09479111 0.08743499
0.017818892 0.1361962 -0.07877029 0.13464303 0.009628379 0.055591658 0.07752576 -0.024531988
0.010622695 -0.044176262 0.05316381 -0.049187396 -0.004557767 0.032425325 0.08160824 0.0073690033
0.0057191434 -0.045892704 -0.051147714 0.01469703 -0.03272754 -0.013066021 -0.06553028 -0.00857713
0.009862628 0.032532033 -0.00677903 0.040907085 0.051643517 -0.017020885 0.0485415 0.044114865
-0.020690272 0.073786505 0.10296145 0.14109929 -0.06515616 -0.0030032157 -0.042197704 0.087444305
0.022062123 -0.03427259 0.0063848644 0.07456334 -0.0070127705 0.025718875 0.063677706 0.051069904

2.weight f4 [64, 128]
00000000: 326e 533c 17d2 91bd 6b36 2e3d a39e 02bd
00000010: 00d9 fc3c 6d6a 2cbd f6dd cebc bc71 db3c
00000020: 42ee 973d 557d 6ebc 8d01 a4bd 62f3 2cbd
00000030: f994 02bd f9a4 a0bd 749e bebd 0d48 b2bb
00000040: 6a40 0abd 1081 493d 796d 57bd 7278 143d
00000050: a4da 82bd 6c23 67bd 276c 26bd 3c11 37bd
00000060: 5c5e acbd 1fd6 5c3d a6a4 6ebb 2d2f 383d
00000070: 6e25 73bd c76f b13d ae47 15bc 896b 40bc
00000080: f519 01bd 3c35 eebc 4708 9a3d 3616 b5bd
00000090: c1a7 01be b98d 703d e5ac bbbd 7d01 103d
000000a0: 91b7 a33d 5bf8 703d afa9 65bd 7591 a93d
000000b0: 38a4 233c c6cc d53c 06bd 88bd d0cd 853d
000000c0: f3ef b9bd 16d6 19bd b9aa a5bd ff01 a6bd
000000d0: 6289 ecbc 7293 9f3d 60f9 763d 7e7a 9cbd
000000e0: 7a9d 52bd f6a1 7ebd d70c ad3d cf44 40bc
000000f0: 8604 133d 99f9 6abd c49f 94bc a45d 723c
00000100: a7d6 11bd 9cc1 73bd 9e34 b1bd 6e10 45bd
00000110: e542 0fbd ed6d 26bd 1f7f 0bbd ee13 48bd
00000120: 9d2c 523d d688 b5bc 2768 473d 6259 1c3d
00000130: b26f adbd 1a1e 243d 9c1a 41bd 3459 ccbc
00000140: a77a d8bd 73f0 14bd 7497 9ebd aecf b4bc
00000150: 6b6e 97bd 3f58 2abd 1002 63bd fd63 113d
00000160: 08cd 7abc 1094 88bc 652d 2cbc 3a3a 65bd
00000170: 2477 c9bd 5121 d73c d518 b83c 99e8 af3b
00000180: cf2f ffbd 2412 d5bc 8d25 103c 7d9c ea3c
00000190: 6b8c 62bb 272e 16bd 2879 88bd 46a4 01bd
000001a0: 5b22 7b3d c83f 87bd c0d1 aabd 617f 8cbd
000001b0: 846b 8b3d 65ec 393c 4561 0c3d 63e6 5b3b
000001c0: a516 77bd a9bb 013c 1321 97bd 2cbc 813c
000001d0: 1bdb 2cbb bbc9 9b3c f4f5 8fbd dc25 0c3c
000001e0: 0d9d 0abe c7dc 2a3d 2c71 cdbd 194a 22bd
000001f0: faa9 be3b 1aed 9ebd 9f1f f73b ab29 78bd
00000200: 0398 fb3d cd5e 2a3e 04d7 263c 14cb 293e
00000210: 05b5 3c3e f633 1d3e dae6 5f3e eef2 59bd
00000220: eddc 163d b556 303d e198 c4bd baed 033e
00000230: b4be 0c3e 466f 273e 4b22 4ebe 0dcd 1a3e
00000240: 3a78 c23d b852 d33e e0b1 bebc c86e a7bd
00000250: 91d0 cc3e 63f9 873d d16c 6a3e 18dd 5e3e
00000260: fee2 6b3e 044d 5d3e 2cdc 94bd d1e6 c33b
00000270: 8c4e 293d a0b5 69bd 2c70 c63e 5110 2dbe
00000280: d49a f23c f0bd 99bd dfa6 cc3c 667a b33d
00000290: 14e6 5b3e fab6 143e 76cd 013e b67a a7bd
000002a0: 2ed9 a23b 25a4 f73c ee23 b63d 11cb 063e
000002b0: 8c5b ea3d 8e4e 92bd 401b 1c3d df32 183e
000002c0: 0d8c 82be f3d3 4c3e 81ef 173e 5883 ed3e
000002d0: 61cb 233d 47bb a3bc 526f 8ebc e3ec 973c
000002e0: 4b67 413e 4f20 bbbc 15ff 9c3d 712c 8e3d
000002f0: e31c 94bd 38c9 0a3e 84f9 bbbc eca5 0b3e
00000300: 75a1 88bd f7bb 6dbd 81e8 dabc 7fa3 8c3d
00000310: f091 553b 8f83 c93c e437 993d 1ec4 d33d
00000320: 3e0d f9bd 6a0e 0a3e 1e2a aa3e d4f4 873d
00000330: 2f7e 093e b545 ac3d 85ec 85bd bfbc 643c
00000340: 5c23 ea3b 2834 0dbe 7999 953d 9af4 6cbd
00000350: 45f2 853d d5a8 553d 1f5b 683e bbaf 9e3e
00000360: 5edb ff3c c9c9 943d 5ee4 98bc 9007 c03c
00000370: 8162 02be a74e 81bd a562 fabd ae48 7e3d
00000380: 2115 a3be 8396 203c c185 9bbc 4f99 d7bd
00000390: e95d e0bc 3e89 ae3d 3b75 c0bd c50b d73c
000003a0: 0141 c9bd fdfb 133e 3442 123e f2b4 d2ba
000003b0: 6948 bbbc f242 a83d 7d01 52be 3b23 cb3c
000003c0: f0f9 4f3d 923e 7b3d 55a0 93bd 61e3 453e
000003d0: 2752 1cbd ce7b f5b9 21e6 4e3d d92f d93d
000003e0: 5194 c0bb 57d2 943d 667b 4c3d c57b f33d
000003f0: 95c8 f13c d091 e5bd 7c46 c13d 8e2c c83d
0.012904691 -0.071201496 0.042532366 -0.03188957 0.030865192 -0.042093683 -0.025252324 0.026787631
0.07418491 -0.014556249 -0.08008108 -0.042224295 -0.031880353 -0.07843966 -0.09307566 -0.005440718
-0.033752836 0.04919535 -0.052594636 0.036247678 -0.06389359 -0.056430265 -0.040630486 -0.04469417
-0.08416435 0.05391514 -0.0036414056 0.044966865 -0.059361868 0.08663898 -0.009111328 -0.011744388
-0.031518895 -0.029078119 0.0752111 -0.08842127 -0.1266165 0.058728907 -0.091638364 0.03515767
0.07993997 0.0588306 -0.056070026 0.08279697 0.009987883 0.02609862 -0.06676678 0.06533396
-0.0907897 -0.037557684 -0.080892034 -0.081058495 -0.028874103 0.07791795 0.060296416 -0.07640551
-0.051419713 -0.062166177 0.08449715 -0.011735155 0.035892986 -0.05736694 -0.018142588 0.0147928335
-0.0356051 -0.059510812 -0.08652614 -0.04811137 -0.034975905 -0.040632177 -0.03405678 -0.04884713
0.051312078 -0.022159975 0.04868331 0.03817118 -0.0846857 0.04006777 -0.047144517 -0.02494488
-0.10570269 -0.036362123 -0.07743731 -0.022071686 -0.073941074 -0.041588064 -0.05542189 0.035495747
-0.015307672 -0.016672164 -0.01050887 -0.055963732 -0.098371774 0.026261004 0.022472778 0.005368304
-0.12460291 -0.026009627 0.008798015 0.028639073 -0.003456856 -0.036665108 -0.06663734 -0.031650804
0.06131206 -0.06603962 -0.08340788 -0.06860233 0.06807616 0.011347865 0.03427245 0.003355407
-0.06032433 0.007918277 -0.07379355 0.015836798 -0.0026375714 0.019017091 -0.07029334 0.008553948
-0.13536473 0.041714456 -0.100313514 -0.039621446 0.0058186026 -0.07760067 0.0075416113 -0.060586613
0.12284853 0.16637726 0.0101831 0.16581374 0.18428428 0.15351853 0.21865407 -0.05321019
0.036831785 0.04305144 -0.09599472 0.12883654 0.13744622 0.16351041 -0.20130269 0.15117283
0.09495588 0.41274047 -0.023278177 -0.08175427 0.40002874 0.066393636 0.22893073 0.21764028
0.2303581 0.2161141 -0.07268557 0.005978443 0.041334674 -0.057057977 0.38757455 -0.16900755
0.029614843 -0.07506931 0.024981914 0.0876358 0.21474487 0.14522925 0.12676033 -0.08177702
0.0049697375 0.030229637 0.08893572 0.13163401 0.114432424 -0.07143889 0.038111925 0.14863156
-0.25497475 0.20002727 0.14837457 0.4638927 0.03998888 -0.019986762 -0.017387066 0.018545574
0.1888706 -0.022842554 0.076658405 0.0694207 -0.07232072 0.13553321 -0.022946127 0.13637513
-0.066714205 -0.058040585 -0.026722195 0.06867122 0.0032588206 0.024598865 0.074813634 0.10340141
-0.12160729 0.13482061 0.33235258 0.06638494 0.13427041 0.08411733 -0.06539253 0.013961016
0.0071453284 -0.13789427 0.07304663 -0.057850458 0.0654035 0.052162964 0.2269101 0.30993447
0.031232532 0.0726505 -0.018663581 0.023441106 -0.12732889 -0.0631383 -0.12225846 0.06208103
-0.31852058 0.00980151 -0.018984677 -0.10527288 -0.02738853 0.085222706 -0.0939736 0.02625073
-0.09826852 0.14451595 0.14283067 -0.0016075654 -0.022861676 0.08215894 -0.2050838 0.024797073
0.05077547 0.06133897 -0.07208315 0.1932502 -0.038164284 -0.00046822283 0.050512437 0.10604829
-0.0058770557 0.07266682 0.04992237 0.118888415 0.02951459 -0.11209452 0.09437272 0.09774123

2.bias f4 [64]
00000000: 6c4f f9bc c060 c73d a028 f83d 31d4 a9bd
00000010: 6375 3ebd 3e66 643d ae71 073d d034 a73d
00000020: 86bd 31bd 34bc bebc 1d4f 4bbc 5b83 953d
00000030: b5a1 283d 720f ddbd 475b 613d 7d18 76bd
00000040: b234 9d3d 0c1f d13d eff8 233e de1e 6abd
00000050: 3dc6 c93c 2109 0e3e 9932 b63c e1ea d6bc
00000060: 8392 ce3d 8101 8a3d 4490 a03d 8334 a03d
00000070: 74f9 04bd a486 393d c1a0 3a3e f30c 03bd
00000080: cc5b 3e3d 5da9 cd3d 4f5d cc3d c6f4 ba3d
00000090: ca69 973d def5 bbbd 3f9e a13d 8e21 9e3d
000000a0: b07b 383d 683d c43d eddd b93d ae00 a6bc
000000b0: 39a1 4c3d e6c1 d4bc ec23 323d 150f d3bd
000000c0: 12ca a23c 5432 553d 1f00 1dbb 9524 a23d
000000d0: 1f43 0dbd d667 c4bd 7924 653d 8911 e4bc
000000e0: 848f 58bb 52f7 9a3c 9e68 f63d 697d a43d
000000f0: e5c0 9a3d 2602 853d e086 1c3e 8b72 a63d
-0.03043338 0.097352505 0.121171236 -0.082924254 -0.046498667 0.05576157 0.033067398 0.0816437
-0.043393634 -0.023283102 -0.012408999 0.07300445 0.04116984 -0.107939616 0.05501869 -0.060081948
0.076760665 0.10211 0.1601293 -0.057158343 0.02463066 0.1387067 0.022240924 -0.026235046
0.10086539 0.06738568 0.078400165 0.07822516 -0.03246446 0.04529442 0.18225385 -0.03199477
0.046474263 0.10042069 0.09978735 0.09128718 0.073932245 -0.09177755 0.07891511 0.07721244
0.045039833 0.09582025 0.09075532 -0.020263996 0.04995844 -0.025971364 0.04349129 -0.10305611
0.019871745 0.05204995 -0.002395637 0.07917134 -0.03448784 -0.09590118 0.055942986 -0.027840393
-0.0033044526 0.01891676 0.12031673 0.080317326 0.07556323 0.064945504 0.15285826 0.08127316

4.weight f4 [10, 64]
00000000: 4ec2 b63d b509 66be f1ab 83be 6f8f 4b3e
00000010: 9e38 06be f379 123d 7d32 9ebe a184 fdbd
00000020: d242 ffbc 692c 84be 9bf0 0a3e 1c79 2dbe
00000030: c912 29be 8b85 abbd 3a9e 9b3c c99b e7bd
00000040: 5ad6 23be c835 20be 3172 37be 6587 cf3d
00000050: 2902 1f3e 3e89 9ebe ac1f 153e d08a 0c3e
00000060: b59c 9a3d 4ffb febc 5e26 8a3d afdd 9ebd
00000070: 2b66 53bd 2ef0 48be 85cb 5fbe e32f e13d
00000080: 9993 6d3d d02f ad3d fff7 493d 7b2f f33d
00000090: 9d86 2dbe 5716 3f3d 37bc a03d a9c7 f0bd
000000a0: c25b 78be 96d5 2bbe 58fe f53d 9e34 1b3e
000000b0: 90e1 8cbe 820e 7cbc 65dc 82bb 6243 c2bd
000000c0: 6833 0cbe 65f1 bf3d e10e 1d3e 2390 46be
000000d0: 8703 66be b7ee 68bd 4687 a73d 4447 003e
000000e0: 2332 603e ecf6 bf3d b135 8abe ec39 6fbe
000000f0: 9f0e 653e 9833 2b3e c980 b0bd e3ad 9fbc
00000100: 2d12 d83d 6aed 403e 63e7 303e f119 95bc
00000110: cbd8 44be d792 ab3d b36f 113e ed12 4d3e
00000120: d37e 75be 8a35 103e 80bf 4bbe 15c7 3bbe
00000130: 8c35 b1be 7fb8 e73b 95b6 ed3c 56e1 41bd
00000140: 3dfb 05be 59ad 0c3e 051a 423d c478 973a
00000150: b9bf 24bd 2452 2f3e 4104 763e d184 9fbe
00000160: 4bb1 5fbe 01e8 77bd 3f32 00be 4a69 68be
00000170: a2e5 c9bd bffd 1b3e 3f69 99bd 2a3d 1abe
00000180: 8780 67be aebe 483e e789 8d3e e251 0fbe
00000190: 2b45 06bc 1fe2 ccbc 59a6 3dbe f85c f63d
000001a0: cf8f c13d d04f 793e f74c d53d 9ef8 10be
000001b0: 2195 f03d df6d d7bc f2b2 703d 7025 d73c
000001c0: 1be3 22be fa54 63be 4c38 8d3e 2297 313e
000001d0: c488 e53d b152 7ebe 4d48 a1be c2f6 7ebd
000001e0: 565b b73d 7bef 89be f8a7 8c3b fb1b cb3d
000001f0: 5499 433e 8fce 48be 8bab 01bd 38e6 84bd
00000200: 1550 60bd cd6f 233e e1ee 213e 7c00 fd3d
00000210: c7f4 243e abd0 d0bd 1b51 79be df39 253e
00000220: cdaa 8abe c82b aa3e edca cabd ce4e f4bd
00000230: 81bf aabc f973 73bd 0aee 99bd fb5a 323e
00000240: 930a 443c 0f1d c63d e8ae eebc b8ee 593e
00000250: f1f4 51be f544 56be 7de9 60be 9732 55bd
00000260: 9c82 753d 358f 003e 50a4 01bd c13d e6bc
00000270: be49 58bc 12b6 38be 87bc 57bd 086d aa3d
00000280: 7ef5 633e 9c37 3f3d 324e f43d 2177 58be
00000290: 13ef 093e e810 04be b443 71be 7369 c53b
000002a0: 2af3 52be 6d7d a3be bc73 32be 5cce 3e3e
000002b0: 25a9 573d b5b7 ce3d 8e77 8f3d e348 2fbd
000002c0: 34bf 3ebe 0ca5 d23d 12a3 253e ce96 7fbe
000002d0: c686 6dbe ca38 33be fac7 8bbd dcb4 473d
000002e0: fc68 343e 1d68 163d 4361 063d 5cbf 5f3d
000002f0: 5daf 02bd 0506 a2bd b9d3 85be be3d 84be
00000300: 5501 a3bd 122e 4c3e 2e00 bdbe e10a fcbd
00000310: 86bb 113e c701 e0bd 6db4 0c3e b684 debd
00000320: 0b6d 97be 6168 36be f834 d03d 2817 6abe
00000330: 592c 91be 6055 e5bc 96f7 d23d 2da7 b5bc
00000340: 32b4 cabd f1e9 4c3e eca1 31be f18d 643e
00000350: 7a57 423e 8faa 80be cf99 18bd 5529 873d
00000360: 76af 3bbd 7616 a3bc a84b 7e3d 7fde 4c3e
00000370: 7412 3b3e bb1a b1be 57cd a93d f198 4b3d
00000380: cd07 9a3d 8bf5 b4bd 2b78 68be 01c0 60be
00000390: 2ca2 f53d d78a 153b 940e 0e3d 2209 123e
000003a0: 2734 083c 5b1a 1bbe 9649 493d c013 27be
000003b0: dc30 f03d b87c c8ba 0b14 2cbe 869c 993d
000003c0: ef48 1c3e eaf1 4bbe d54f 09be 0ffa eebd
000003d0: 2a23 283e 6e2c 7c3e 25fa bebd cbd7 353d
000003e0: 6032 8cbe 0760 1fbe ad06 063e 2496 80bb
000003f0: 2422 04be 969e efbd 5a93 a53d ad34 89be
0.089237794 -0.2246464 -0.25717118 0.19878934 -0.13107535 0.03576083 -0.30897895 -0.123788126
-0.031159792 -0.25815132 0.13568346 -0.16940731 -0.16511072 -0.08375081 0.018996347 -0.113090105
-0.15999737 -0.15645516 -0.17914654 0.10133246 0.15528168 -0.30964082 0.14562863 0.13724828
0.07549421 -0.031125693 0.06745599 -0.077571265 -0.051611107 -0.19622871 -0.2185498 0.10995462
0.05800209 0.08456385 0.049308773 0.118742906 -0.16945882 0.046652164 0.07848399 -0.11756832
-0.24253753 -0.16780695 0.12011403 0.1515679 -0.2751584 -0.015384318 -0.003993558 -0.094855085
-0.13691485 0.09372214 0.15337707 -0.19390921 -0.22462283 -0.05686828 0.08180098 0.12527186
0.21894126 0.093732685 -0.26994088 -0.23361939 0.22368859 0.167189 -0.08618314 -0.019492095
0.10550342 0.18840566 0.17275767 -0.018200846 -0.19223325 0.08377617 0.14202766 0.20026751
-0.23974161 0.14082924 -0.1989727 -0.18337663 -0.34611166 0.007071554 0.029017726 -0.047334038
-0.13084121 0.13738002 0.047388095 0.0011556377 -0.040221903 0.17121178 0.2402506 -0.31156018
-0.21844976 -0.06052399 -0.12519167 -0.22696415 -0.09858252 0.15233515 -0.07490777 -0.15062395
-0.22607623 0.19603989 0.27644274 -0.1399608 -0.008195202 -0.025010167 -0.18520488 0.12029451
0.094512574 0.24346852 0.104150705 -0.1415734 0.11747194 -0.026297508 0.058764406 0.026262969
-0.15906946 -0.22200385 0.27582014 0.17342809 0.112077266 -0.24836232 -0.31500474 -0.062247045
0.08952968 -0.26940522 0.0042924844 0.09917446 0.19101459 -0.19610046 -0.031657737 -0.06489223
-0.054763872 0.15960617 0.15813781 0.12353608 0.16109 -0.1019605 -0.24347346 0.16135357
-0.27083436 0.33236527 -0.09901986 -0.11929093 -0.02084327 -0.059436772 -0.075161055 0.17417519
0.011965412 0.09673511 -0.029136136 0.2128247 -0.20503594 -0.20924743 -0.21964069 -0.0520502
0.059939012 0.12554629 -0.03165084 -0.028105618 -0.013201175 -0.18038204 -0.052670028 0.08321577
0.22261617 0.046683893 0.11928977 -0.21139194 0.13470106 -0.12897074 -0.23560983 0.0060245334
-0.20600572 -0.3193163 -0.17426962 0.18633407 0.052651543 0.10093633 0.07005225 -0.04279412
-0.18627626 0.102853864 0.16175488 -0.24959871 -0.23195943 -0.17502132 -0.06825252 0.048756465
0.17618173 0.036720384 0.0328076 0.054625854 -0.03190552 -0.079113044 -0.26138094 -0.25828356
-0.079592384 0.1993945 -0.369142 -0.123067625 0.14231691 -0.10937839 0.13740702 -0.10865156
-0.2957538 -0.17813255 0.10166353 -0.22860396 -0.28354147 -0.027994812 0.103011295 -0.022174442
-0.09897651 0.20011117 -0.17346925 0.22319771 0.18978682 -0.25130126 -0.03725606 0.0659968
-0.04582163 -0.019908171 0.06208387 0.2000675 0.18268758 -0.34590706 0.082911186 0.049706403
0.07521019 -0.08835896 -0.2270209 -0.21948244 0.119938225 0.002281835 0.03468187 0.14261296
0.008313215 -0.15146773 0.049142443 -0.16316128 0.11728069 -0.0015295958 -0.16804521 0.075005576
0.15262197 -0.19916502 -0.1340936 -0.11668789 0.16419664 0.24626324 -0.09325055 0.04439525
-0.27382183 -0.15563975 0.13088484 -0.003924148 -0.12903649 -0.1170017 0.08084746 -0.26798

4.bias f4 [10]
00000000: 5cfc 013d 9f63 bcbd 62ed e53c 5952 f4bc
00000010: 2724 f8bc 6ca9 393e 5f1d 173d 7e53 f03d
00000020: c123 e6bb 948a 44bd
0.03173481 -0.09198689 0.028067295 -0.029824423 -0.030290676 0.18131036 0.036893245 0.11734675
-0.007023305 -0.04798372
